source/traced_model_cnn_0.pt (torch, 498241 bytes, 10 tensors)

weight f4 [6, 1, 3, 3]
00000000: 609c 793c 2aaf 2f3e c8b2 7cbd b0b8 e3bc
00000010: 6e7c 1ebe b6ff 49be a60c d1bd 60d2 5a3c
00000020: 80ff 7bbc 02dd 10c1 fc73 c33d 2115 66c0
00000030: aaeb 6341 622f 5341 3954 9341 2ad2 b840
00000040: 8300 0841 52f6 8141 e2c9 bc40 813b cc40
00000050: 491c 7040 3233 be40 8793 cac0 f6e1 d93e
00000060: ab98 f040 d2a4 c9bf edbe 8341 4680 ecbf
00000070: 33f0 e3bf 820b 00c0 8158 ffbf 69fb 13c0
00000080: 33e0 f2bf afd5 05c0 e71f 01c0 487a 01c0
00000090: a775 6dc0 6917 5bc0 a126 4fc0 e3c3 82c0
000000a0: 98e3 74c0 cc56 71c0 bb4c 7dc0 e442 7cc0
000000b0: 3424 83c0 0bcd fabf a554 efbf e49e debf
000000c0: f963 00c0 c08b f1bf 69d5 ddbf a7e5 d4bf
000000d0: 240f 05c0 4383 d7bf
0.015235037 0.17156664 -0.061693937 -0.027798027 -0.15477154 -0.19726452 -0.102074906 0.013355821
-0.01538074 -9.053957 0.09543607 -3.5950396 14.245035 13.199068 18.416124 5.775655
8.500125 16.245274 5.899644 6.3822637 3.7517264 5.9437494 -6.3305087 0.42555207
7.518636 -1.5753424 16.468225 -1.8476646 -1.7807678 -2.0007024 -1.9948884 -2.3122199
-1.897467 -2.0911672 -2.0175722 -2.0230885 -3.710306 -3.4233038 -3.2367327 -4.086412
-3.8263912 -3.7709227 -3.9578083 -3.9415827 -4.0981693 -1.9593824 -1.8697706 -1.739224
-2.0061018 -1.8870773 -1.7330753 -1.6632584 -2.079049 -1.6836933

bias f4 [6]
00000000: 1ba6 03be f2ef b238 5f0a 7d3c cd1c bbbb
00000010: 6810 79bd f0e4 0dbc
-0.12856333 8.532395e-05 0.015444367 -0.0057102204 -0.06080666 -0.00866054

weight f4 [12, 6, 3, 3]
00000000: 9478 113d 1cba b9bd 8423 833d 2e19 a63d
00000010: 00b0 36bb 00cb 003e c00b f93d dc68 113d
00000020: b81a 7fbc 767f bf3f 06ec 0ebe ad54 aa40
00000030: 5b6f 0840 f9e5 1b3e c0ab cb3f 250e 64c0
00000040: 0ffc 89c0 bd36 32c0 9c22 cabe 2a7f debf
00000050: 41b6 0c3f 31c6 0940 66b7 03bf 9f7b 823f
00000060: 8dce b03e 142b 81bf 119e 5ebe 44af cdbe
00000070: 1328 c4be 000e e2be 5939 2dbe 7aaf 2bbe
00000080: d5e5 5abe a60e 243d 8184 9dbd 96d4 96bc
00000090: 1157 03bf c41f 19bf ac63 febe 6a46 9dbe
000000a0: c43b 95be e819 a1be 1b33 12be 45bc dabd
000000b0: dd45 e1bd f083 b6be 5e52 b4be 99ae a6be
000000c0: 97f0 8ebe 41d0 35be 1692 3bbe 10d5 d6bd
000000d0: 8552 e9bd c686 8ebd ccec 013e e31a cbbd
000000e0: 9ef7 a13d 6e62 863d a75d 08be 541e 8b3d
000000f0: 90a4 22bd b05d 7cbd 0c12 423d c37c 02bf
00000100: aa55 e0be 7c6b 9fbe f522 203e 4ccd 6cbe
00000110: f4ab 93be 39a3 05bf 1ffb cfbe 98bf 12bf
00000120: 5233 a5be db3b cfbe 7d97 5b3e 5b86 84bf
00000130: 113d 62bf e729 63bf 5c19 53bf b40f 5ebf
00000140: 8e35 48bf 2b9e 80be 494f e8bd 1460 8abe
00000150: 88a8 28be 2370 febd 392d a9bd 7602 e5bd
00000160: c05a 97bd 8a50 05be 5b18 37bd 777b 46bd
00000170: e697 163d 0a4a 93bd 4e18 d63c 33f2 a6bd
00000180: 69e7 f83c 7423 14bd 381e 1b3d a491 b4bd
00000190: e385 c3bd f4db 05be fd44 e5bd 427e 5ebd
000001a0: 91f8 05be 25b4 61be 7a3a c5bd 420c 87bd
000001b0: c8e9 993d fc46 873d d44b ea3d feab 3fbd
000001c0: 30e0 26bd 4c2a cc3d 08c1 bb3d cc43 02be
000001d0: c005 5fbd 1cf2 e4be ebac c3be 4cf8 52be
000001e0: 9c21 bcbe e5a7 9abe fc28 aebe c0fa 9dbd
000001f0: 3a5a 0cbe f5b2 e33b fe2d f5be 34bb 01bf
00000200: eb24 eabe 93cf 41be 907e 5ebd 73cb 85bc
00000210: 7ca6 afbd 1074 28be b298 63be 6482 91be
00000220: 1739 bbbe 75aa 3bbe dfad 44be 72d8 81be
00000230: 5e4d 0fbe be40 95be c19c 76bc 10c7 52bd
00000240: 9bab bfbe fb28 bebe 72af 6bbe 9521 9bbe
00000250: 4e02 3dbe 60b5 79bd 38c0 14be 6d5e 0bbd
00000260: 0591 07be d2e1 3abe 1f07 4fbe db39 5dbe
00000270: 3f64 15be 0b40 c0bd 10c6 4ebe b6e0 71be
00000280: 779f 39be 7991 22bd 32a0 d63d 3ca6 e03d
00000290: 61d4 efbd 208e 533c 8858 8f3d 9765 b5bd
000002a0: f48e 8f3d 8030 013e d4f8 dc3d 4d2b cabd
000002b0: 2fcd 5dbd 9e2e a5be 3323 43be 2b75 13bf
000002c0: 3816 acbe 9ce6 62be d797 0cbf 2a11 a8be
000002d0: 291a 92be 7fc7 e0bd 0bb3 41be d8d0 e1be
000002e0: 50c0 cebe de69 2cbe ef85 86be 3eae b2be
000002f0: c972 5fbe 5afe babc f644 573d c840 42be
00000300: 9a6a eebd 48b3 9e3d add5 303e 1923 f3bd
00000310: 51f2 2bbe 65d9 68bd 2e4a 0ebe f972 67bd
00000320: 3fc9 43be e6aa 10be 198a 8abe aac6 91bd
00000330: 7ef8 33be 3c4d d5bd 771f 11be 76de 2abe
00000340: b46f 2ebd c873 07be 3304 6ebe c087 80be
00000350: 30f4 0dbe 6199 4fbd 7808 2fbe fdbb 91be
00000360: 74c3 513d 00dd 763a d0f7 0c3d b6e1 983d
00000370: 5e93 e2bd 70bf a53c 38d0 e93c e30f 80bd
00000380: 6447 1b3d f8b4 5dbd 52c2 43be ce7f 9bbe
00000390: ca5f f1bd 9dde 40be eca5 54be 0298 36be
000003a0: 1d09 0cbd f92d 90be c24c 0bbe 2d1a 30be
000003b0: 708d 2cbf 8cc1 92bd 9f44 54be 130a 36be
000003c0: a245 78be b5e3 86be 1584 49be 2cb4 6ebc
000003d0: e1eb 673c b874 babd 94b5 3d3d 1e09 40bd
000003e0: 2f21 a5bd 1b80 f5bd 5b37 8f3c 8ee5 27be
000003f0: a326 72be 62da bfbd a5f0 30bd b427 99bd
0.035515383 -0.09068701 0.064032584 0.081102714 -0.00278759 0.12577438 0.12160444 0.035500392
-0.015570335 1.4960773 -0.13957223 5.3228364 2.1317966 0.15224446 1.5911789 -3.5633633
-4.312019 -2.784591 -0.3947953 -1.7382557 0.549656 2.1527216 -0.5145172 1.0193976
0.34532586 -1.0091271 -0.21739985 -0.4017278 -0.38311824 -0.44151306 -0.16916408 -0.16766158
-0.21376736 0.040053032 -0.07691289 -0.018411916 -0.5130473 -0.59814095 -0.4968542 -0.30717784
-0.2914716 -0.31465077 -0.14277308 -0.10680441 -0.109996535 -0.35647535 -0.3521909 -0.32555082
-0.2791793 -0.17755224 -0.18317446 -0.10489857 -0.113926925 -0.069593 0.12687987 -0.099172376
0.07908557 0.06561743 -0.13316976 0.06792894 -0.03970772 -0.061612785 0.047380492 -0.5097162
-0.43815356 -0.31136692 0.15638335 -0.2312519 -0.28842127 -0.52202183 -0.40621278 -0.573236
-0.32265717 -0.40475354 0.21444507 -1.0353502 -0.8837443 -0.8873581 -0.8246057 -0.8674271
-0.7820672 -0.25120673 -0.113432474 -0.27026427 -0.1647054 -0.12423732 -0.08260579 -0.1118211
-0.07390356 -0.13019004 -0.04470096 -0.04845759 0.036765955 -0.07191856 0.026134636 -0.081516646
0.030383782 -0.036166623 0.037870616 -0.08816841 -0.09547021 -0.13072187 -0.11194799 -0.054319628
-0.13083102 -0.22041376 -0.09630294 -0.06594135 0.07515293 0.06605336 0.11440244 -0.046794884
-0.040741146 0.09969005 0.09167677 -0.12721175 -0.054448843 -0.44715965 -0.38217863 -0.2060253
-0.36744392 -0.30206218 -0.34015644 -0.077138424 -0.13706294 0.0069488236 -0.47886652 -0.50676274
-0.4573129 -0.1892684 -0.05431992 -0.016332364 -0.08576676 -0.16450524 -0.22226217 -0.28419793
-0.36566994 -0.18326743 -0.19206952 -0.25360447 -0.13994357 -0.29150957 -0.0150520215 -0.051459372
-0.37435612 -0.3714064 -0.23016146 -0.3029906 -0.1845791 -0.06096399 -0.1452645 -0.0340256
-0.13238914 -0.18250206 -0.2021756 -0.21604101 -0.14589022 -0.09387215 -0.20192742 -0.23620877
-0.18127237 -0.039689515 0.104797736 0.10969207 -0.1171043 0.012912303 0.06999308 -0.08857267
0.07009688 0.12616158 0.10789648 -0.0987154 -0.054150756 -0.3226213 -0.19056396 -0.5760066
-0.33610702 -0.22158283 -0.5491919 -0.32825595 -0.28535584 -0.10975551 -0.18915956 -0.44104648
-0.40381098 -0.1683726 -0.26274058 -0.3489856 -0.21821131 -0.022826362 0.052556 -0.18970025
-0.116414264 0.07749039 0.17269011 -0.11871929 -0.16791655 -0.05684795 -0.13895485 -0.05650613
-0.19119738 -0.14127693 -0.27058485 -0.0711797 -0.17575261 -0.10415122 -0.14172159 -0.16686425
-0.042586997 -0.13227761 -0.2324379 -0.2510357 -0.13862681 -0.050683383 -0.17093074 -0.28463736
0.05121179 0.0009417087 0.03441602 0.07464926 -0.11063264 0.020232886 0.02854167 -0.0625303
0.03790988 -0.054127663 -0.19117096 -0.30370945 -0.117858484 -0.1883492 -0.20766419 -0.17831424
-0.03418838 -0.28160074 -0.136035 -0.17197485 -0.67403316 -0.071658224 -0.20729302 -0.1777728
-0.24245313 -0.26345602 -0.19679292 -0.0145693235 0.014155359 -0.091042936 0.046315745 -0.046883695
-0.0806297 -0.11987325 0.01748245 -0.16396162 -0.23647551 -0.09367825 -0.043198247 -0.07478276

bias f4 [12]
00000000: 688d b43c 98c8 62be ccd1 39be 6378 30be
00000010: 6f31 8dbd 816d 09be 6230 5e3c 1b08 98be
00000020: a0b9 28be 2739 48bc 92a8 06be e031 dfbd
0.022040084 -0.22146833 -0.18146437 -0.17233424 -0.06894194 -0.13420679 0.01356134 -0.29693684
-0.1647706 -0.012220657 -0.13150242 -0.10898185

weight f4 [256, 336]
00000000: 9961 afbd 5dcc 1cbd 3f33 3dbd c009 73bd
00000010: 9607 08bd 11f1 45be 70d4 1bbe 49f3 aebd
00000020: 8922 c5bd e199 e5bd 2f0f a5bd 44ee 7cbc
00000030: 847d 96bd fd83 a1bd 7fb1 bfbd 7211 92bd
00000040: 194a c0bd 63be 11bc 1446 0cbd 8008 0ebd
00000050: c7d5 95bd 9b55 9abd 4f01 fbbd b2be 8dbd
00000060: 35e5 dcbd e5ec 1bbd af5b 4fbd 54b1 ec3b
00000070: bffb c1bd 2a50 4cbd 4612 c0bd 321d 29bd
00000080: 9d73 e5bc 6509 40bc 5a26 5abd fb45 4ebd
00000090: 58a8 163c 6fa5 d23b f988 3dbe 8cee 02be
000000a0: 0fc1 f4bc d7d6 ccbd 4c21 fe39 9ab6 99bc
000000b0: c328 9abd 7686 dfbc b7c6 92bd e8b3 9bbd
000000c0: 42b1 de3a 0ce7 c6bb 0673 7fbd 9d75 e6ba
000000d0: 5492 aebd dc22 c7bd 5d24 05bd 18b7 d7bc
000000e0: 3799 9bbd 0f4b 42bc 04ca 5cbd 3a9f bcbc
000000f0: d23e 29bd 921b 21bd 107a 5ebc 8677 5fbb
00000100: cdca 72bd 0968 aabd c86e 81bb 6cbc a8bc
00000110: df20 1abd 11b4 72ba 340a 6ebc f51c e6bc
00000120: 762b 63bb 4cb6 debc 9163 8cbd 1380 09bd
00000130: f992 8cbc 070e 9abd 7559 d73c 8741 c4bc
00000140: 89d8 acbd c827 4d3c f559 87bd e4df 23bd
00000150: cf21 babd 08ce a4bd 53f8 06bc e621 88bc
00000160: 30e0 69bd 7df4 40bc 0757 f2ba 6209 adbb
00000170: 6f92 95bd d498 fd3b f11d 45bd 98db 1cbd
00000180: c6b2 f0bc 1d6c 93bd adbf aabb 4e58 97bd
00000190: 1c93 cb3b bb14 19bd 93ec c4bc 179c 65bc
000001a0: e1a9 aabc 53c8 51bd 5a93 b4bc d2ec 46bd
000001b0: 5e5e 5cbd 1fe4 a1bb 7dd5 75bd 9d3c b8bd
000001c0: f253 bebd 93b1 a7bd 58c3 aa3c b7e2 20bd
000001d0: 5bd6 cbbd 9176 a8bd 75bf 81bd 1c6c 47bd
000001e0: f929 b8bd f3bb a0bc 4705 78bd 2445 043b
000001f0: 37ef b43b 593a 5ebd ce9e 97bd 4fa2 fabc
00000200: be0e 03bd 169f b8bd dc93 74bd 5828 2fbd
00000210: 856f 47bd d9c4 8cbd 2f8c 8ebd f410 7fbd
00000220: 5aa3 43bd 1470 d23b 2c70 08bd 9a4f c8ba
00000230: bc80 36bd 44c4 2ebd ddf8 7bbd 126d edbc
00000240: 5a3a 293b 5a35 d9bd 1006 e2bb 2af8 a4bd
00000250: 4487 c7bc 5ad3 aebd d040 90bd 7726 e8bc
00000260: 7a26 e8bc 676b 66bb 6cc7 62bd ac4d 85bd
00000270: 9a41 0abd 0e1c 93bd 7a1c a5bd 19d2 26bd
00000280: 0a11 78bd 4220 48bd 90d6 9539 dece e7bb
00000290: ce51 1fbd e8d1 47bd 7e3c 81bd f4fe acbc
000002a0: ae87 59bd c867 75bd 1124 e0bc 6168 11bd
000002b0: c994 aabd 4857 14bd 5517 61be 5e8b 68be
000002c0: 1d9e 7fbe 4ecb 10be 6823 74be 991f 8cbe
000002d0: cd5a a0be a253 86be 447a d3bd 0d50 40bd
000002e0: 3c6a b9bc 1626 5dbd bdbb 3fbd 1def dabd
000002f0: 856c b6bd 8365 debd a50f a7bd f742 d5bd
00000300: 06c9 cbbd 5e66 28bd a8b3 78bd 1d6a efbd
00000310: 183e 3dbd d922 e83b 99fd a7bd ccdc 09bd
00000320: c989 68bc fd1a 863b 719d 783b 0406 97bd
00000330: ec1a e33b 6ff3 d3bd 9a1d 2bbd c43d 41bd
00000340: 1691 81bc ee7a 75bd 8c4d babd 5233 aebd
00000350: 46b4 cebd 9742 96bd bf43 c5bd 3cbd 1abc
00000360: d0b5 89bd 2f08 60bb ccb2 3fbc f505 86bd
00000370: 7c4a 9dbd 0302 1ebd b4ed cbbd 460f babd
00000380: d956 8b3d 4647 f03d dece 5c3d 5451 353d
00000390: 6aeb 723d b755 cd3c 62c8 a23d 1518 d93d
000003a0: aa95 d7bd 2042 d43d fe03 b3bc 0e71 c23d
000003b0: e03d 86bd 3d89 d4bd cc6b b23d 1ef7 cf3c
000003c0: 5abf a43d ba4e 5fbd 5fac e3bd 2e7f 0d3d
000003d0: 124e a13d 5ce1 77bd e893 9d3d 4c79 b43c
000003e0: f5bc 993c c54c 113d d755 86bc ad4b 013d
000003f0: dc14 1ebd c80f c5bc e110 14bd c130 92bd
-0.08563537 -0.038280834 -0.04619145 -0.05933547 -0.03321036 -0.19330241 -0.15217757 -0.08542497
-0.09625728 -0.11210991 -0.08059537 -0.015437666 -0.07348159 -0.07886503 -0.093600266 -0.07132234
-0.09389133 -0.008895489 -0.03424652 -0.034676075 -0.073161654 -0.07535859 -0.12256109 -0.06921138
-0.10785905 -0.038067717 -0.050624546 0.0072232876 -0.09471845 -0.049881138 -0.093784854 -0.04128761
-0.02800923 -0.01172099 -0.05325923 -0.050359707 0.00919541 0.0064284126 -0.18509282 -0.12786311
-0.029877214 -0.10001915 0.00048471463 -0.018763829 -0.07527306 -0.027285796 -0.07166808 -0.07602674
0.0016990083 -0.0060700234 -0.062365554 -0.0017582659 -0.085240036 -0.09723446 -0.03250538 -0.026332423
-0.07597583 -0.011858716 -0.053903595 -0.023025144 -0.041319676 -0.039332934 -0.013578907 -0.003409834
-0.059275437 -0.083206244 -0.0039499737 -0.020597659 -0.037629005 -0.00092583994 -0.0145288 -0.02808998
-0.0034663356 -0.027186535 -0.06854928 -0.033569407 -0.017159926 -0.07522207 0.026287774 -0.023957027
-0.08439738 0.012521692 -0.06608955 -0.04000844 -0.0908848 -0.0804711 -0.008237916 -0.016617727
-0.057098567 -0.011777041 -0.0018489071 -0.0052806595 -0.073033206 0.007739166 -0.048124257 -0.03829536
-0.02938212 -0.07198355 -0.005210838 -0.0738989 0.006212605 -0.037373286 -0.024038589 -0.0140142655
-0.020832958 -0.051216435 -0.022042919 -0.048565693 -0.053800933 -0.004940524 -0.06001805 -0.08995936
-0.09293355 -0.081881665 0.0208451 -0.039278712 -0.099529944 -0.0822574 -0.06335346 -0.048687086
-0.08992381 -0.019620871 -0.060551908 0.0020182813 0.0055216807 -0.054254863 -0.074033365 -0.030594973
-0.03199648 -0.09014718 -0.059711322 -0.042763084 -0.048690338 -0.06873483 -0.06960332 -0.062272027
-0.047763206 0.006422052 -0.0333101 -0.0015282512 -0.044556364 -0.042667642 -0.06151663 -0.028982673
0.0025822134 -0.10605879 -0.0068976954 -0.08055146 -0.024356492 -0.08536406 -0.07043612 -0.028338654
-0.02833866 -0.0035159232 -0.055365965 -0.06508955 -0.03375397 -0.071830854 -0.08062072 -0.04072771
-0.060563125 -0.04885889 0.00028579356 -0.007074221 -0.038896374 -0.048784167 -0.06310366 -0.021117665
-0.05310791 -0.059913427 -0.027360948 -0.035499934 -0.0832916 -0.03621605 -0.21981557 -0.22709414
-0.24962659 -0.14140055 -0.23841631 -0.27367857 -0.31319275 -0.26235682 -0.10326055 -0.046951342
-0.022633664 -0.0539914 -0.0468099 -0.106901385 -0.08907417 -0.108592056 -0.08157281 -0.10413163
-0.099504516 -0.04111325 -0.06071821 -0.116901614 -0.046201795 0.0070842323 -0.08202667 -0.033657834
-0.014193007 0.0040925727 0.003793564 -0.07374194 0.0069306996 -0.10349166 -0.041776277 -0.047178045
-0.015816253 -0.059931688 -0.09096822 -0.08505882 -0.10092978 -0.0733692 -0.09632062 -0.009444531
-0.06724131 -0.0034184565 -0.011700343 -0.06544105 -0.076802224 -0.038576137 -0.09957448 -0.090849444
0.06803674 0.11732344 0.05390822 0.044267014 0.05930654 0.025065286 0.07948376 0.106002964
-0.10526593 0.10364175 -0.02185249 0.0949422 -0.065547705 -0.103777386 0.08711967 0.02538639
0.0804431 -0.05451844 -0.111168616 0.034545116 0.07876219 -0.060517654 0.076942265 0.022030495
0.01876686 0.035473604 -0.016398354 0.03156631 -0.03859411 -0.024055377 -0.03614891 -0.07138205

bias f4 [256]
00000000: a577 98be b957 70be 27b7 0bbe 1681 95bd
00000010: 28aa e2be 65a3 89be bae5 efbd bc51 f1be
00000020: 274a 38be 22b7 10bf efef dcbe ee0d 91c0
00000030: 162c 9cbe 89f0 aabd 7366 b4be e692 aebe
00000040: 99c7 b0be b120 99be 62e0 65bf 31f5 9fbe
00000050: b8ec b3bd c263 96bd 2282 a3be ff26 0cbf
00000060: 769c 87be ca8e b4be 1577 49be ff98 85be
00000070: 7863 99bd 9712 6ebe 15d8 f3bd 7db7 92bd
00000080: aa86 7fbd cfd0 89bd 1b57 1cbe 253d b8bd
00000090: 21fb b2be 8c44 20be 5fa2 80be d069 1dbe
000000a0: 4b25 3dbe 3a7d 07be 6a18 a4be b9ac 24be
000000b0: 4b61 29bd ba6f c5be fe9e b6be 21bf 60be
000000c0: d072 e5be 4fa4 7ebd 6939 68be 28c4 37bf
000000d0: 0176 883b 0dcf 91bc 3697 1fbe 1d9f c5bd
000000e0: 5e24 d3be 4a49 81be e7c2 b8be a74c 0abe
000000f0: d886 8abe f55f bbbd ae11 a7be bb8d 80be
00000100: 551e 90be c384 7bbd 2b80 55be 841c 36bf
00000110: c65c c7be 5ca5 aabe 0ba0 c6be 1f6b d9be
00000120: 0510 dfbd 9f25 e7bd 8ccf 92be f2f2 adbe
00000130: f41f 35be e26b 10bf 4069 8ebe 4eec 6bbe
00000140: a9d1 4ebe 8f53 b3be 67ec e93d 4897 a2be
00000150: afa4 84be a92e 33bf f6bc ddbe 89c6 27be
00000160: 7a2d 1dbe c4e4 14bf 2d59 38be 0ea2 f4bd
00000170: ba31 cebc 250b a3bd 2641 07be 5c89 073f
00000180: c855 17bd a5a7 86bf b781 40bd 8857 68bd
00000190: 68e1 6cbd 3c74 c9bd f8b3 4cbc a703 ebbd
000001a0: c8dc 99bd faa7 a4be 01cb a1be d975 8cbd
000001b0: 917e cd3f fa10 84be 28ba 0fbf f822 5cbe
000001c0: f611 7dbe 1a80 89bd 2f48 4dbe 85b9 eabe
000001d0: 19b6 8abe 21ec b6be 8c0d 13bf 8765 bdbf
000001e0: 7687 aebe cbb9 91be 336b fabc 5cc3 96bd
000001f0: b80e c7bf 8e4e 20bf 4fd9 e7bd 34ca d1be
00000200: 5984 aabe 2ca4 28be dc3e 97be 076a 55be
00000210: 402c 65be 0b25 b3bd 35d3 bebd ea38 c2be
00000220: fcb4 febd 1981 113f f5b5 b53e 09ec a9bf
00000230: 87d0 79be 7809 c8bc 3901 1bbe 8e70 a4be
00000240: 2273 3ebe 59b4 38bf 6fb2 97bd aa2e 803f
00000250: 896b 21be de8c 80be 4ecc 80be 9033 0dbe
00000260: cf36 8dbf b429 f7bd 156e 29bf 230d 8cbd
00000270: 1b01 4bbe 30bc 01be 5045 0bbe ef59 89bc
00000280: 06e1 99bd e651 0dbe 4815 e6bd 70df 75be
00000290: 3148 46be 47e3 a0bd 1779 b0be 7cfc 39be
000002a0: c53f c0be 2d21 38be 4f80 e9be de68 9abe
000002b0: a3e7 1ebf 9c4a bebe 19cb a6bd 57f3 5f40
000002c0: d8b9 6abe 8ae8 65be 6c8f 6cbd 7c3c 39bd
000002d0: a66a 89bf 82be 98be ae0f b1bd 4ef9 a4be
000002e0: 2ca5 23bd 3e0f a1bd 1016 ecbd 2939 8ebd
000002f0: 6e8d 58bd 170d aebe 9bee f7bd 65d9 0fbe
00000300: e856 7abe 13ed debd 484a afbe e98c eebc
00000310: 09f8 84bd 55da 93bd abde 07be 6dce 16bf
00000320: b007 b4be 3684 c6be 916b e2be 05b5 bcbe
00000330: 315b acbe c0cf 063f d3ca b5be 122a dfbd
00000340: 2dd2 67be 5580 1dbc b0e6 94be ba13 b7be
00000350: 5c70 32bd a8a7 aabe 18a6 aebe 9102 90bd
00000360: 343f 55bd 21b6 88bd a4f6 33be e27f 0540
00000370: c8ff a5bd b1da 85be a178 a2be ea81 72be
00000380: fa58 2bbe f407 afbd 38ef 8ebe 24a0 d9bc
00000390: 56a2 64be 0061 35be 050d 9ebd 9f24 45be
000003a0: f59e 9fbe fe8c 13be 58ad 30be cdcf 88bd
000003b0: 9a8d 04be e363 bdbe 7af5 36bf fef4 a8bd
000003c0: a35c 32bf b67d 91bf dca6 c7be da4f aebe
000003d0: 2e1a 24be d58e 98be c7fa 2abe ffc5 2cbf
000003e0: 71a5 cbbe 01ad 55be 713a c3bd 44ab 25be
000003f0: 44a7 3cbd 29e2 c5be f74e 1ebe 6137 1bbe
-0.29778782 -0.23470964 -0.13644086 -0.07300012 -0.44270444 -0.26882473 -0.11713739 -0.4713267
-0.17997037 -0.5652944 -0.43151805 -4.5329504 -0.30502385 -0.0834666 -0.35234413 -0.3409645
-0.3452728 -0.29907754 -0.89795506 -0.31241754 -0.08785385 -0.07343246 -0.3193522 -0.54747003
-0.26486558 -0.3526519 -0.19674332 -0.2609329 -0.07489675 -0.23249279 -0.11906449 -0.07163904
-0.062384285 -0.0672928 -0.15267603 -0.089960374 -0.3495722 -0.15651149 -0.2512388 -0.15372396
-0.18471257 -0.13231364 -0.32049876 -0.16081513 -0.04135255 -0.38561803 -0.35668176 -0.2194791
-0.44814157 -0.062168416 -0.2267815 -0.71783686 0.004164458 -0.017798925 -0.15585026 -0.09649489
-0.41238683 -0.25251228 -0.360862 -0.13505803 -0.27056003 -0.09149162 -0.32630676 -0.25108132
-0.28148142 -0.06140591 -0.20849673 -0.7113726 -0.38937968 -0.33329284 -0.38793978 -0.4246454
-0.10891727 -0.112864725 -0.2867397 -0.33974415 -0.1768797 -0.56414616 -0.27814674 -0.23039362
-0.20197167 -0.35024688 0.11422043 -0.31756043 -0.25906894 -0.6999307 -0.43308228 -0.16384329
-0.15349379 -0.5816157 -0.18002768 -0.11944972 -0.025170196 -0.0796111 -0.13208446 0.5294397
-0.03694704 -1.0519911 -0.046998706 -0.0567241 -0.05783215 -0.09836623 -0.01249408 -0.11475306
-0.07512814 -0.32159406 -0.31600192 -0.06858415 1.605425 -0.25794202 -0.56143427 -0.21497715
-0.24713883 -0.067138866 -0.20047067 -0.45844665 -0.27092054 -0.35727027 -0.57442546 -1.4796609
-0.34087723 -0.2846206 -0.030568695 -0.073614806 -1.5551367 -0.62619865 -0.11320745 -0.4097458
-0.33304098 -0.16468877 -0.29540145 -0.20841227 -0.22380161 -0.087473 -0.09317628 -0.37934047
-0.12436864 0.5683761 0.35490385 -1.3275157 -0.24395953 -0.024418578 -0.15137185 -0.32117122
-0.18598607 -0.7215019 -0.074070804 1.0014241 -0.15763678 -0.25107473 -0.25155872 -0.13789201
-1.1032351 -0.12068501 -0.66183597 -0.06838443 -0.1982464 -0.12669444 -0.1360066 -0.016766516
-0.07513623 -0.13800773 -0.11234528 -0.24011016 -0.19363476 -0.0785585 -0.34467384 -0.18162721
-0.37548652 -0.17981406 -0.45605704 -0.30158132 -0.620722 -0.37166297 -0.081442066 3.4992273
-0.22922456 -0.22451988 -0.057753965 -0.045223698 -1.0735672 -0.29832846 -0.08645569 -0.32221454
-0.039952442 -0.07864235 -0.115276456 -0.06944496 -0.052869253 -0.33994362 -0.12106057 -0.14047773
-0.24447215 -0.10885062 -0.3423636 -0.029119926 -0.064926215 -0.07219378 -0.13268535 -0.5890873
-0.35162115 -0.38772744 -0.44222692 -0.36856857 -0.33663324 0.5266075 -0.35506305 -0.10896696
-0.2263877 -0.009613116 -0.2908225 -0.35757238 -0.043564186 -0.33331037 -0.34111094 -0.070317395
-0.05206223 -0.06675363 -0.17574555 2.0859303 -0.08105427 -0.2614341 -0.31732658 -0.23682371
-0.1673316 -0.08546439 -0.27916884 -0.026565619 -0.22327551 -0.17712784 -0.07717327 -0.19252251
-0.31175962 -0.14409253 -0.17253625 -0.0668026 -0.12944642 -0.3699027 -0.7146832 -0.082498536
-0.696726 -1.1366489 -0.3899449 -0.34045297 -0.16025612 -0.29796472 -0.16697226 -0.6748962
-0.3977466 -0.20866777 -0.09532631 -0.16178614 -0.046057954 -0.3864911 -0.1545981 -0.15157844

weight f4 [128, 256]
00000000: 9e48 f0bb 6e3f 523d 0222 0dbd 6f2e 81bd
00000010: c845 f5bd 4c37 f6bd b433 74bd 40db c43a
00000020: 0099 4dbb 54c5 f4bd 055a cabd a84a 91be
00000030: 6ccd 89bc ecf8 f33d e44d a5bc 00ec 713a
00000040: 704f 0a3c f940 c5bd e26c 493d 102c b1bc
00000050: f7a7 fcbb 1097 3cbc 30f7 d8bc 69f5 52bd
00000060: c4c6 3a3d a969 cebd 4420 03bd d03f 813d
00000070: 1cbb 51bd 7bcf 403d 100e 98bb e0e5 443b
00000080: 6d86 e0bd 8c07 39bd af3d 18bd 2a6c 15bd
00000090: f938 cebd 60cd dc3b 2887 99bc 5ca5 d13c
000000a0: a8c7 b93a 503b 0f3c 7685 2bbd a0c9 6ebb
000000b0: 2856 f6bc 3e7d b6bd 00c9 9539 9921 44bb
000000c0: ce7c 8dbd acb6 95bd 7695 8fbd cd58 0bbd
000000d0: df89 673d d23f e7bb 5227 ddbd bf92 dabc
000000e0: 68b8 98bc 7892 8e3c 549b 123d 1025 9abd
000000f0: e6e5 51bd 80b3 a5bb a1c9 dabe f122 bb3d
00000100: caea c53c 35c8 c9bd 68b4 7e3c fb26 c6bd
00000110: eb10 82bd 3689 b63d 56be 61bd e6c0 53bd
00000120: 74a7 7ebd d58a b4bc 01da 8f3c 8997 853d
00000130: 34b1 f83c 2f02 5ebd 8b7d a0bd e266 24bd
00000140: 9a6e 463d 82e8 eb3d fa61 d2bd c919 e3bd
00000150: 9e30 f73d 481a a0be 8884 52bd 4ab8 d4bc
00000160: 7461 a2bd 3f97 ef3c fa93 4f3d 2d60 eebd
00000170: 45ae 7c3d 5cb7 c1bc 3621 edbd bd3b 03be
00000180: c306 293d d44e 70bd 8233 c3bd 9527 e03a
00000190: 6161 8e3d 9c1c c73d 38f5 253c b610 e5bd
000001a0: d22c 5c3d e306 77bc 4dd5 1fbc 5016 863b
000001b0: cc38 adbe b528 acbd d884 a6bc cf42 e73c
000001c0: 8067 cebc 63d6 12bd c6ce 8bbd a45b 6ebd
000001d0: e864 6cbd 21f2 e8bd 231b ddbd b85b 713c
000001e0: 7370 32bd b7ee 833d dc1e 30bd 167f c0bc
000001f0: 30f9 e9bd 1468 943d 400a 8a3c 366d c5bd
00000200: baca 7a3d 6bc1 2cbd c5de 84bd 3669 8abd
00000210: 4414 1c3c 4e0f 0dbd f9ba 2cbd 7fde 4abd
00000220: 39c0 05b9 b099 dabe 764a 8abd 4f21 6dbd
00000230: 08b7 d3bd 3fa3 c93c f6e5 68bd e7a9 f73d
00000240: 2af1 33bd 9fc5 8abd 28ef ccbd 1cd5 d7be
00000250: c83f 23bc a95e e2bc 80bb edbd f3c8 9a3d
00000260: a22e 46bc ece7 ebbd e080 bcbb 7db2 b9bc
00000270: 8608 e3bd ac47 aabc a02e 37bc 814f 2abd
00000280: 5f4e 3dbd ce09 1a3d 7325 c1be af8f bdbd
00000290: a34a e2bb 397b b1b9 28a9 78bc 7cb8 bd3c
000002a0: 4b4b 05bd d324 16bd 261c 733d 90b4 a5bb
000002b0: 755d 13bd af79 debd 4704 5dbd a5a2 29bd
000002c0: 614c aebd 80fc 58bd cd76 0dbb c536 73bd
000002d0: 6359 acbc f478 5dbc 932f 4abd 8193 9cbc
000002e0: 8beb 84bd 547b d9bd 5a34 76bd 202d e83d
000002f0: 033a a43d 369e 0bbd d02f b0bc dd07 f6bd
00000300: 7c0c debc b649 7fbd 3d28 52bd 8df8 50bc
00000310: 2d10 b53c d9c8 a2bd 24eb 3d3d 84ed 413d
00000320: 432d 13b6 28ba 1bbd 98a6 5ebc 5968 c9bd
00000330: cf41 f4bd 50b2 99bd 1104 debd ce8b 2dbd
00000340: 4ed4 c2b9 54e9 84bd e525 b9bb dbf8 883d
00000350: 1ea1 f8bd 7e24 5e3d 4769 dbbd b5f8 bdbd
00000360: 9c9a 4fbd 6701 9b3c e440 a53c c2df e2bc
00000370: 2709 91bb 045e b73c d676 95bd 0059 173c
00000380: cfeb 17bd af47 6839 0a74 0dbd 17e6 b43d
00000390: 6311 7ebd dff7 e7bc 24e8 c0bc 1498 4dbc
000003a0: d7a1 dfbb ae51 56bd b0a1 09bd f9e1 c1bd
000003b0: 80a9 1f3d b1b3 e5bd 7801 17bd 1c43 1c3d
000003c0: 9c44 90bc c812 7bbd 2029 aabb 0a2e bbbc
000003d0: c682 18bd 014e 5dbd 62a4 26bd fc2c e6bd
000003e0: 3376 8abd c6ab 2bbd 2057 5ebb cac9 97bd
000003f0: d887 f9bb 6226 3dbd e0b7 11bb 4f89 11bc
-0.0073328754 0.051330023 -0.03445626 -0.06307685 -0.119762 -0.12022266 -0.05961962 0.0015018955
-0.0031371713 -0.119517 -0.09880451 -0.2837727 -0.016821586 0.119127125 -0.020178743 0.0009228587
0.008441791 -0.09631533 0.049176104 -0.021627456 -0.0077104527 -0.0115106255 -0.026485056 -0.051503573
0.045599714 -0.10078747 -0.032013193 0.063109994 -0.051203832 0.04707287 -0.0046403483 0.0030044243
-0.1096314 -0.045173213 -0.0371682 -0.036480106 -0.100694604 0.00673835 -0.018741205 0.025591545
0.0014173882 0.008742169 -0.041875325 -0.0036436096 -0.03007038 -0.08910607 0.0002856925 -0.0029927252
-0.0690857 -0.073102325 -0.07010929 -0.034020234 0.05652797 -0.0070571685 -0.107985154 -0.026681302
-0.01864262 0.017403826 0.035792664 -0.075266 -0.05124464 -0.0050567985 -0.42731956 0.09137524
0.024159808 -0.098526396 0.015545942 -0.09675404 -0.06350883 0.0891289 -0.05511316 -0.051697634
-0.062171414 -0.022038857 0.017560007 0.06523044 0.030357935 -0.0542013 -0.078364454 -0.04013718
0.04844532 0.11518957 -0.10272594 -0.110889025 0.1206982 -0.3127005 -0.051395923 -0.025966782
-0.07928744 0.029246924 0.05067823 -0.11639438 0.061689634 -0.023647003 -0.115786 -0.12815757
0.041266214 -0.058668926 -0.09531309 0.001710164 0.06952167 0.09722254 0.0101292655 -0.11184828
0.05375368 -0.0150773255 -0.009755445 0.0040920153 -0.33832395 -0.08406202 -0.020327017 0.028230099
-0.025195837 -0.035848986 -0.06826548 -0.058192864 -0.05771342 -0.113743074 -0.107961915 0.01473134
-0.04356427 0.064420156 -0.04299818 -0.0234981 -0.11424482 0.07246414 0.01685059 -0.09639971
0.06122849 -0.042176645 -0.064878024 -0.06758349 0.009526316 -0.034438424 -0.0421705 -0.049528595
-0.00012755477 -0.4269538 -0.067524835 -0.057893094 -0.10337645 0.024613975 -0.056859933 0.12092953
-0.043931164 -0.067759745 -0.10006553 -0.42154777 -0.009963937 -0.027633028 -0.116080284 0.07557859
-0.012096079 -0.11518845 -0.005752668 -0.022668118 -0.1108561 -0.020786129 -0.01118055 -0.041579727
-0.04621732 0.037607007 -0.37723884 -0.09255921 -0.00690587 -0.0003385188 -0.015177049 0.023159258
-0.032542508 -0.036656212 0.059353016 -0.005056925 -0.0359778 -0.10863053 -0.053959157 -0.041414876
-0.08510662 -0.052975178 -0.0021585703 -0.059378404 -0.021038717 -0.013517607 -0.049361777 -0.019113304
-0.06490239 -0.10619226 -0.06010852 0.11336732 0.08018877 -0.03408643 -0.021507174 -0.120132186
-0.027105562 -0.062326156 -0.051307905 -0.012754572 0.02210244 -0.07948465 0.046366826 0.047345653
-2.1931053e-06 -0.03801933 -0.013589524 -0.09834356 -0.119266145 -0.075047135 -0.10840619 -0.042369656
-0.00037160743 -0.06489816 -0.0056502693 0.066880904 -0.12140106 0.05423402 -0.107134394 -0.09275953
-0.050684556 0.018921567 0.020172544 -0.027694587 -0.00442614 0.022383697 -0.07298057 0.009237528
-0.03709012 0.00022151948 -0.03453449 0.08832949 -0.0620283 -0.028316436 -0.023548193 -0.012548465
-0.0068247127 -0.05232399 -0.033601463 -0.09466929 0.038980007 -0.11215914 -0.036866635 0.038149938
-0.01761084 -0.061297208 -0.0051928908 -0.022849102 -0.03723409 -0.05402947 -0.04068411 -0.11239049
-0.06760826 -0.041911863 -0.0033926442 -0.07411535 -0.007615071 -0.046179183 -0.0022234842 -0.008882835

bias f4 [128]
00000000: 07c5 d2be a03b efbf 53bc 77bd dfc6 efbf
00000010: 0bd3 a0be 4bdd 9f40 cb47 50bf 81aa a4bf
00000020: 4cba 9d40 6cd0 4fc0 04df b53f 79b0 d6be
00000030: 62cc b9bf 0062 bbbe d828 f840 b50a 8abf
00000040: 811b 11c0 5537 ed3d 75cb 20bf 3288 24be
00000050: d7cb e0bd 9c95 9cbe 9a55 64bd 108b 0ec0
00000060: bcf4 4340 cba6 83bf fa91 c3c0 d926 8bbf
00000070: fdda f7be afde 16bf fc47 41c0 a762 e4be
00000080: d233 c8be 38ff f2be b9e2 1ec0 46a1 69be
00000090: d1cb c1bd 73dd dabe aa88 05bf fb68 89be
000000a0: 1b71 92be 7f36 15c0 a701 e1be b387 c6be
000000b0: b45d 3fc0 decf 60bd 6191 89be 931b 29bf
000000c0: 154c 01be 20e0 913e 191f 37bf b395 e3be
000000d0: 5dad 0ebf d8ef 01be acdf 31bf b53b 69be
000000e0: f8e9 08be 5d1b 4cbe c369 1ebf bf24 f7be
000000f0: 15b2 9ebe 39bb 8bbe c005 f3bf 857b 24bf
00000100: 880b 9b40 2cf1 94bf c3c2 efbf 4a43 58be
00000110: 1073 8ebf fab2 88be 0ea2 03bf ab7f a2bf
00000120: 877d cabd e2b0 54bf 2f41 1fc0 d3d7 4cbf
00000130: 277d b2bf 0929 5bbf 4e41 b8bd 8732 dcbf
00000140: 706f 72be 8c89 97be 00a6 5cc0 8625 1dc0
00000150: 6cf7 54bf f51d 83bf bad9 04be 9df1 f7bf
00000160: 4dc1 60be 8c30 d3be 87ea bfbe 3404 e0bf
00000170: 60cc 58be e784 96bf 327f 9bbe e0da 1dc0
00000180: ed2b f1be 4501 0dbf 8cd0 06bf 502e 80bf
00000190: cb2f ebbe b8e6 53c0 c9af cebe 12ef ebbe
000001a0: 76a5 45be 1308 81bf 0d6f 49be ecd0 a7be
000001b0: 3179 923f 5c04 cdbe 964e 64bf 61f2 c3be
000001c0: d6b2 46be 020f 03bf 4db4 64c0 5a59 cdbe
000001d0: 50e7 2abe 2fa9 01be aa52 cbbe 2b23 9abe
000001e0: 42bd 22c0 a957 8cbf 655c 70be bd83 f3be
000001f0: c9ee d9bd 56cc 88be a87f 5241 8333 c5bf
-0.41165945 -1.8690071 -0.060482334 -1.8732566 -0.31411013 4.9957633 -0.8135955 -1.2864534
4.9289913 -3.247096 1.4208684 -0.41931513 -1.4515498 -0.36598206 7.754986 -1.0784518
-2.2673037 0.11582819 -0.6281045 -0.1606758 -0.10976379 -0.30582893 -0.0557457 -2.2272377
3.0618124 -1.0285276 -6.1115694 -1.087123 -0.48409262 -0.5893354 -3.0200186 -0.44606516
-0.39102036 -0.4746034 -2.482588 -0.22815427 -0.09462703 -0.42747077 -0.5216166 -0.26837906
-0.28601918 -2.3314512 -0.43946573 -0.38775405 -2.9900942 -0.054885738 -0.26868728 -0.660577
-0.12626679 0.28491306 -0.71531826 -0.4445015 -0.5573328 -0.1268915 -0.6948192 -0.22776683
-0.13370502 -0.19932313 -0.6188013 -0.48270223 -0.3099524 -0.27291277 -1.898613 -0.64250976
4.8451576 -1.16361 -1.8731312 -0.21119419 -1.1128864 -0.26699048 -0.5141915 -1.2695211
-0.09887224 -0.830824 -2.4883535 -0.8001682 -1.3944443 -0.8560949 -0.08996831 -1.720292
-0.23675323 -0.29597127 -3.4476318 -2.4554152 -0.83190036 -1.0243517 -0.12973681 -1.937061
-0.21948738 -0.41247976 -0.37483618 -1.7501283 -0.21171713 -1.1759309 -0.3037048 -2.466484
-0.47103825 -0.5508006 -0.5266197 -1.0014133 -0.459349 -3.310957 -0.40368488 -0.46080834
-0.193014 -1.0080589 -0.19671269 -0.32776582 1.1443235 -0.40042388 -0.8918241 -0.38270858
-0.19404158 -0.51194775 -3.5735047 -0.40107232 -0.16689801 -0.12662195 -0.39711505 -0.30104956
-2.5428014 -1.0964252 -0.23472746 -0.47561446 -0.10641248 -0.26718396 13.156166 -1.5406345

weight f4 [3, 128]
00000000: b982 a83c cdec 04bf ef55 f6bc 4195 1dbf
00000010: df96 ab3e a790 a2c0 0626 d6bd ac5f 20be
00000020: fd52 63be 0b87 2dc0 3644 2a3e 0cce 3c3e
00000030: 1a32 46bf 4730 afbe 0957 4ebf c02c 85c0
00000040: 34a8 c6be 4c8b 553e 7c98 d83d 3770 47bd
00000050: f75b d6bb a4b2 fa3d b9de fe3b f0c4 eebf
00000060: e86b a8bf 4744 8b3e acbb 09c0 120b 49bf
00000070: e6e4 40bf ad08 82bc 3db7 e4bf 58d7 15bc
00000080: a7fc c53d 036f 403e 8b8e 10bf 52bc 18c0
00000090: b30c 8ebd 380e e3bf a222 ab3d d908 053e
000000a0: 6c3e 6d3e a696 b6bf eb3f 96be f7a0 54bf
000000b0: 31bd bbbf 0464 313e ad2f 7b3e ede3 033e
000000c0: 21d5 7c3c 48f9 68c0 4958 353d 2e80 093e
000000d0: 3920 52be 0ab8 a2bc 8583 abbc cb3e 7fbe
000000e0: 6582 073e 3478 02c0 84ab 07bf a320 153e
000000f0: e0b4 4c3e 30db 1d3e 9466 0dbf ddab adbe
00000100: d544 0cbf e8d0 573e 050d 7fbf 857c a3bd
00000110: 0f34 72be ae52 87be 7cd9 9fbe 2f6f 2ec0
00000120: 428a 8abd 8b19 88bd cc79 2dbf 3dd6 b5be
00000130: 11a8 82be fa17 dcbe 4c09 cdbd 355c 90bf
00000140: 1b63 90bd bf10 18be a4f0 71be 8c8e 13bf
00000150: bb9b ce3d e329 49be a390 a73c 2f45 efbe
00000160: 0f0e e23d 8951 bcbd 76f2 bf3e 6b6c 86bf
00000170: 9963 943e 3b72 a6bf 01ac 4abe 3cfd 00bf
00000180: dc9e 233e ea92 ae3d 55f5 6f3e 02ba adbe
00000190: 0530 82be 335c bfbe 2f79 74be 8ca4 12be
000001a0: 65ba 72bd 6034 c53d 41ce 35be 09c0 463e
000001b0: cb12 28bf b7e0 2cbf e3aa 1bbe 7128 503e
000001c0: adba 6dbe e1f4 10be 6bdc 58be 36b2 403e
000001d0: 5c15 ed3d 8ae3 173d 0d60 42be c366 803e
000001e0: 54ff 4abe b653 e3be 91a6 b13d 25c5 30be
000001f0: 98dc e63d a95a b6be 03cb 05bd 3435 ec3d
00000200: c17f 97be 02f7 3bc0 ead5 e33c 032a 8dbe
00000210: 62a8 b63d f5c3 593e dfdc 6abb 38e3 dcbe
00000220: a7fc a7bf fae5 eabe da51 cebc f678 313e
00000230: 994e c9bf 423d 783e bb37 77be 3d8c 47be
00000240: ce12 59c0 9188 7bbe fd16 71be 2186 423d
00000250: 3177 e13d 0f2f 1f3c 708a ca3d a658 64bf
00000260: 68d3 86be ba2e 81be fe27 afbf 9aa9 79bf
00000270: f895 7a3e 4f4e 8abe 60af 1bc0 4500 0d3e
00000280: 8099 953d 9b12 e8bd 0866 52bf 2d77 37c0
00000290: 7838 0abb 8014 663e 2b57 823c 50a2 213e
000002a0: 4b6a 51be fe84 f5bf 3c5d 37be ece5 8139
000002b0: 9eef 4cc0 4892 9e3d 9a78 65be 6247 e13c
000002c0: c79e 01be 133a 28bf 2d9b 99be 8dd7 aabe
000002d0: 9eea 38be ee37 c03d 1e8e a9bc eb27 103e
000002e0: 0957 ed3d 2c42 17c0 8e36 58be 871c ba3d
000002f0: 3783 a0be 8814 1cbe bd98 8bbf 938c 073e
00000300: f084 293e 755f b6bd c41f 33c0 ed90 a63b
00000310: 67a3 6fbf 3553 9cbe 4af7 86bb b3ef e2be
00000320: 203d acbd 7e63 5fbe 512f 53c0 4957 dcbb
00000330: 9315 a2bc 6f7d 73be e27a c73d 5087 efbf
00000340: b09c 9cbf 7b39 583e 983b efbf 69b1 49bf
00000350: 6fbd a3be 8c7e 343d 7e50 80bd 7760 6dbf
00000360: 84a0 1b3d 9dea 4ebe 374d d9be 7b42 9cbf
00000370: aec9 4abf c228 60bf fde9 a13d d071 b8c0
00000380: 221f 5bbe 9cf6 e6be 79c9 8bbe 4214 80bd
00000390: 51f8 033e 74d3 8ec0 1342 a33e 3f14 143e
000003a0: 3d07 153e c110 5bbe 9a31 9dbd 1e02 703b
000003b0: 740f 52c0 391f 4a3e 0f47 e2ba 9481 1dbe
000003c0: 2ab4 15be c856 6cbe a4b3 60c0 735a 043d
000003d0: 5c3a 3dbd 13c8 0e3c 3546 793e 0355 7cbe
000003e0: 35e2 48be 5e83 b5bd 0efa 9fbd 0a10 05be
000003f0: f53b 88bd f9fb a3bd 7532 35be 028f eebd
0.020570146 -0.5192383 -0.030070273 -0.6155587 0.33513543 -5.0801578 -0.10456471 -0.15661496
-0.22199626 -2.7113674 0.16627583 0.18437976 -0.774202 -0.3421652 -0.80601555 -4.1617126
-0.38800204 0.20853919 0.10575959 -0.048691 -0.006541725 0.12241104 0.0077780155 -1.865385
-1.315793 0.2720053 -2.1520796 -0.78532517 -0.7534927 -0.015873278 -1.786842 -0.00914558
0.0966733 0.18792348 -0.56467503 -2.3864942 -0.06936016 -1.7738714 0.08356215 0.12991656
0.23168343 -1.4264724 -0.2934564 -0.8305811 -1.4667112 0.17323309 0.24529906 0.12879916
0.015431673 -3.640215 0.04427365 0.13427803 -0.20520104 -0.019863147 -0.020936737 -0.24926297
0.13233335 -2.0385866 -0.5299609 0.14563231 0.19990873 0.15415645 -0.55234647 -0.33920184
-0.5479253 0.21075785 -0.9962924 -0.079827346 -0.23652671 -0.26430267 -0.31220615 -2.725536
-0.06764652 -0.06645497 -0.6776397 -0.35515013 -0.2551885 -0.42987043 -0.10011539 -1.1278139
-0.07050153 -0.14850138 -0.23626953 -0.57639384 0.10088297 -0.19644885 0.02045471 -0.4673247
0.11037838 -0.09195239 0.3748967 -1.0501837 0.28982237 -1.300361 -0.19792177 -0.50386405
0.15978569 0.085241154 0.2343343 -0.33930975 -0.2542726 -0.3737503 -0.23874353 -0.14320582
-0.05925979 0.0962913 -0.17754461 0.19409193 -0.65653676 -0.6753039 -0.15201907 0.20327927
-0.23215742 -0.14155914 -0.21177833 0.18817982 0.115763396 0.037082233 -0.18981953 0.250784
-0.19823962 -0.44399804 0.08674348 -0.17262705 0.11272544 -0.35616043 -0.03266431 0.11533585
-0.29589656 -2.9369512 0.027811963 -0.27571115 0.08918835 0.21266158 -0.0035837216 -0.43142104
-1.3123978 -0.45878583 -0.025185514 0.17331299 -1.5727111 0.24242118 -0.24142353 -0.1948709
-3.3917727 -0.24563815 -0.23543926 0.047491197 0.11009062 0.0097158095 0.09889686 -0.89197767
-0.26333165 -0.25230962 -1.368408 -0.97524416 0.24471271 -0.2701287 -2.432579 0.13769634
0.073046684 -0.11331674 -0.8218694 -2.866649 -0.0021090787 0.22468758 0.015910706 0.15784574
-0.20450704 -1.9181211 -0.1790666 0.00024776103 -3.202125 0.07742745 -0.22409287 0.027499858
-0.12658225 -0.65713614 -0.30001202 -0.33367577 -0.1805825 0.09385668 -0.02069765 0.14077727
0.11588866 -2.3634138 -0.21114561 0.090874724 -0.3135011 -0.15242207 -1.0905987 0.13237219
0.16554618 -0.08904926 -2.7988138 0.0050831945 -0.9360871 -0.30532232 -0.0041188346 -0.443235
-0.08410096 -0.21815297 -3.299763 -0.0067242724 -0.019785678 -0.23778318 0.09740235 -1.8713169
-1.2235317 0.21115677 -1.8690062 -0.7878633 -0.31980464 0.044065997 -0.06265353 -0.9272532
0.037994877 -0.20206685 -0.42441723 -1.2207788 -0.7921399 -0.8756219 0.07905958 -5.763893
-0.21398595 -0.45110023 -0.2730215 -0.06253864 0.12887694 -4.463312 0.31886348 0.14460848
0.14553542 -0.2139311 -0.07675476 0.0036622356 -3.2821932 0.19738473 -0.0017263609 -0.15381461
-0.14619508 -0.2307998 -3.5109644 0.03231282 -0.046198234 0.008714694 0.24343188 -0.24641804
-0.19617541 -0.08862947 -0.07811366 -0.129944 -0.06652061 -0.08007044 -0.17695029 -0.1164837

bias f4 [3]
00000000: 8461 4440 6bda a1bf 8c59 2bc0
3.068452 -1.2644781 -2.6773405
